swimmer_checkpoint.pt (torch, 74793 bytes, 7 tensors)

log_stds f4 [2]
0	0x3fbf9ae0	1.4969139
1	0x3fb00c99	1.3753844

linear_1.weight f4 [128, 8]
0	0x3dd45cf2	0.103692904
1	0xbd01d1d4	-0.03169425
2	0xbeaa2134	-0.33228457
3	0x3f0644e7	0.52448887
4	0xbcecff6b	-0.028930387
5	0x3e24040a	0.16017166
6	0xbd118db2	-0.03553552
7	0xbd8d77c6	-0.069076106
8	0x3d895351	0.067053445
9	0xbdaa46df	-0.08314299
10	0x3fb1bb9a	1.3885376
11	0x3db8f7d4	0.090316445
12	0xbe65178a	-0.2237226
13	0x3d88e34c	0.066839784
14	0xbd1a5b3f	-0.037684675
15	0x3d8386a0	0.06422162
16	0x3e6d566c	0.23177499
17	0x3e7cb46d	0.24678202
18	0xbf05b33b	-0.5222661
19	0xbf343044	-0.7038615
20	0xbce3fa85	-0.027829418
21	0xbc9ef67c	-0.019404642
22	0xbdb7fe0c	-0.089840025
23	0x3b3f9895	0.0029235233
24	0xbe57458c	-0.21022624
25	0x3c3abcfc	0.011397596
26	0xbeafe4a9	-0.3435414
27	0xbef1046b	-0.47073683
28	0xbe8fc24b	-0.2807792
29	0xbe2c21f2	-0.16809824
30	0x3e9998c3	0.2999936
31	0xbf1c53fd	-0.61065656
32	0xbe14b691	-0.14522769
33	0xbe8df163	-0.27723226
34	0x3f3e24f8	0.7427516
35	0x3e9db65e	0.30803198
36	0xbdfee7cb	-0.12446555
37	0x3eb2593c	0.34833705
38	0x3cc6d7d2	0.024272833
39	0xbeac46eb	-0.33647856
40	0x3e2cceed	0.16875811
41	0xbe25c957	-0.16190086
42	0x3eaef9aa	0.34174854
43	0x3d020c47	0.03174999
44	0x3efa2496	0.48856038
45	0xbe210b7d	-0.15727039
46	0x3e59def3	0.21276455
47	0x3e67241c	0.22572368
48	0xbd9e5576	-0.07731144
49	0xbdd179bf	-0.10228299
50	0xbefe2a80	-0.496418
51	0xbe7f6116	-0.24939379
52	0xbd471d92	-0.048612185
53	0xbcf9c25f	-0.030488191
54	0x3e8413e5	0.25796428
55	0x3d5a6b87	0.053325202
56	0x3ce8ad8d	0.028403068
57	0xbc609248	-0.013706751
58	0x3eab7866	0.33490294
59	0xbe4f17e7	-0.20223962
60	0x3e2fb952	0.17160538
61	0xbd061245	-0.032732267
62	0xbd4e09d2	-0.050302334
63	0xbd522099	-0.05130062
64	0x3ddb6bc4	0.10713914
65	0xbcd79388	-0.026315466
66	0x3ef86e17	0.48521492
67	0xbd818a72	-0.063252345
68	0xbea1a9be	-0.31574816
69	0xbd81443a	-0.06311841
70	0x3dc067ef	0.09394824
71	0x3eed38e5	0.4633247
72	0x3e479772	0.19491366
73	0xbc167f2e	-0.009185595
74	0xbe81fe60	-0.25389385
75	0x3d872e7f	0.06600665
76	0xbd0e9920	-0.034814
77	0x3e4f148d	0.20222683
78	0x3daf5398	0.08560866
79	0x3e4c1a36	0.19931874
80	0xbe9070d1	-0.28211072
81	0xbeba317d	-0.36365882
82	0x3f3feb70	0.74968624
83	0x3e16b292	0.14716557
84	0xbe91ed4e	-0.28501362
85	0x3e432aaa	0.19059244
86	0x3c8e138f	0.01734331
87	0xbeda8e17	-0.4268653
88	0xbe1f703b	-0.15570156
89	0x3ea7ffa5	0.3281223
90	0xbd83e2a9	-0.06439716
91	0xbdbc4f6d	-0.09194837
92	0x3e56e4f6	0.20985779
93	0x3d50e5ca	0.051000394
94	0xbe505605	-0.20345314
95	0x3e58f6c1	0.21187879
96	0x3d6e225f	0.058138248
97	0xbe9d08c6	-0.30670756
98	0x3e051403	0.12995915
99	0xbd2dea6c	-0.04245989
100	0x3da48d0e	0.080347165
101	0x3c4a0a14	0.012331504
102	0xbd4cce0b	-0.050001185
103	0xbeaaa714	-0.33330595
104	0xbe36e0e6	-0.1785923
105	0xbec7d1ad	-0.39027157
106	0x3dc33ac2	0.095326915
107	0xbe0acdcf	-0.13555072
108	0xbf181087	-0.5940022
109	0xbdcf9469	-0.10135729
110	0x3dcb7aa1	0.09935499
111	0x3eae4f7f	0.34045026
112	0xbe4ee899	-0.20205916
113	0xbeb151c7	-0.34632704
114	0x3dd47014	0.1037294
115	0x3db32f3a	0.08749242
116	0x3d8da8d7	0.06916969
117	0xbd8e29fb	-0.06941601
118	0xbea53108	-0.3226397
119	0xbe701eae	-0.23449203
120	0xbeb8538d	-0.36001244
121	0xbe22e926	-0.15909252
122	0x3f4369fd	0.763336
123	0x3dc5ac13	0.09651961
124	0xbf1de2cd	-0.61674196
125	0xbc8fd190	-0.017555982
126	0xbe917bd1	-0.28414777
127	0xbdaadc81	-0.08342839
128	0x3ec9aca1	0.39389518
129	0xbeeb445c	-0.45950592
130	0xbd464b23	-0.0484115
131	0xbddbedf3	-0.107387446
132	0x3dc477b6	0.095931455
133	0x3df82df4	0.1211814
134	0xbdc7b183	-0.097506545
135	0x3e70c2fb	0.23511879
136	0xbecbb0fc	-0.39783466
137	0xbeee718b	-0.46571
138	0x3e88e959	0.2674053
139	0xbdbf5581	-0.093424805
140	0x3e0da05f	0.13830708
141	0xbe4ef737	-0.20211492
142	0x3db9b998	0.09068602
143	0xbe4cfd0a	-0.20018402
144	0xbd08a368	-0.03335896
145	0x3e1c17e3	0.15243487
146	0x3e0f5521	0.13997318
147	0xbe8c60eb	-0.27417693
148	0x3e66cb0d	0.22538395
149	0x3d753317	0.059863176
150	0xbe3c06bf	-0.18361948
151	0xbc0634ba	-0.008191282
152	0xbe18fe37	-0.14940725
153	0xbd7c32d1	-0.0615719
154	0x3f3fa626	0.748629
155	0xbe5cb959	-0.2155508
156	0xbd11a498	-0.03555736
157	0x3e6b6824	0.22988945
158	0xbd6aa26c	-0.057283804
159	0xbdbd4f56	-0.09243648
160	0x3e06aed7	0.13152634
161	0x3e4fc2e1	0.20289184
162	0x3ece38ad	0.40277615
163	0xbe7c0f1c	-0.24615139
164	0x3e7b2952	0.24527481
165	0xbbac6d27	-0.0052620354
166	0xbe20b8e5	-0.15695532
167	0x3da41d22	0.08013369
168	0x3f061092	0.52369034
169	0xbf07b14a	-0.53004897
170	0xbebf37df	-0.37347314
171	0xbea789d3	-0.3272234
172	0x3e207eff	0.15673445
173	0xbd8f2921	-0.069902666
174	0xbe831d36	-0.25608224
175	0xbe53ef79	-0.2069682
176	0x3d766453	0.06015427
177	0x3e72d7af	0.2371509
178	0x3e3774b6	0.17915615
179	0xbdc77833	-0.09739723
180	0x3e0ecc8d	0.13945217
181	0x3e1cb1c9	0.15302195
182	0x3b09e8b9	0.0021043255
183	0x3ea62a63	0.32454214
184	0x3c142e14	0.009044189
185	0x3de7f852	0.1132666
186	0x3f15739d	0.58379537
187	0xbe0a5713	-0.13509779
188	0x3dc5441a	0.0963213
189	0xbc6cb768	-0.014448024
190	0xbdd07829	-0.10179169
191	0x3e04e048	0.12976182
192	0x3ded3155	0.11581675
193	0x3eb2ff60	0.3496046
194	0x3bc2079d	0.0059213177
195	0x3df3ca90	0.1190387
196	0x3e923207	0.28553793
197	0x3e2942d3	0.16529398
198	0xbdbaa10e	-0.0911275
199	0x3e9d121b	0.30677876
200	0xbe5ff25b	-0.21869795
201	0xbdd015c3	-0.10160401
202	0x3e3dc9f1	0.18534066
203	0x3e871367	0.2638199
204	0xbda3e86e	-0.08003317
205	0xbd880e40	-0.06643343
206	0xbe0c8954	-0.13724262
207	0xbee0c123	-0.43897352
208	0x3e19bf51	0.15014388
209	0xbdc61db9	-0.09673638
210	0x3eb2e66b	0.3494142
211	0x3d92492e	0.07142864
212	0xbb42c72f	-0.0029720773
213	0x3d285a4f	0.04110175
214	0xbccffc86	-0.025388967
215	0x3e0ff800	0.14059448
216	0x3e798121	0.24365665
217	0xbea57d31	-0.32322076
218	0xbcbfdec0	-0.023421645
219	0xbe47ab1e	-0.1949887
220	0x3eb81f86	0.3596155
221	0x3dd35110	0.10318196
222	0xbde62e42	-0.11239292
223	0x3e47bf33	0.1950653
224	0xbe62b553	-0.22139482
225	0x3e67d528	0.22639906
226	0x3eaa04b3	0.3320671
227	0xbe2b4d35	-0.16728671
228	0x3ddff826	0.109360024
229	0xbe0081e4	-0.1254955
230	0xbe107500	-0.14107132
231	0x3c883da9	0.016630964
232	0xbd831942	-0.06401302
233	0x3f8696db	1.0514787
234	0x3eeb85c8	0.46000504
235	0x3e4395df	0.1910014
236	0x3e63ad2a	0.22234026
237	0xbe70323c	-0.23456663
238	0xbea304ed	-0.31839696
239	0xbe2fd756	-0.17171988
240	0x3d78c0cc	0.06073074
241	0xbeca9a3f	-0.39570805
242	0x3ddbf69e	0.10740398
243	0xbe590cc1	-0.21196271
244	0xbd259ec1	-0.040434603
245	0xbdd18319	-0.10230083
246	0xbea8252e	-0.32840866
247	0xbc319de7	-0.0108408695
248	0xbe6b83ad	-0.22999449
249	0x3ecd2fa0	0.40075397
250	0x3cc1de88	0.023665681
251	0xbde28fc2	-0.11062576
252	0xbc73fdc2	-0.014892044
253	0xbd1cabcc	-0.038249776
254	0xbe809a88	-0.25117898
255	0xbe5f0efd	-0.21783061

linear_1.bias f4 [128]
0	0xbe24429f	-0.16041039
1	0x3ed1c885	0.40973297
2	0x3e97fadf	0.29683587
3	0xbe320192	-0.17383412
4	0x3d0f84d5	0.035038788
5	0xbedd852e	-0.4326567
6	0xbc59e28c	-0.013298642
7	0xbee5a2af	-0.4485068
8	0xbede4eb3	-0.43419418
9	0xbf4245d8	-0.75887823
10	0xbd90c579	-0.07068915
11	0xbdf1d1bc	-0.11807582
12	0xbe810405	-0.2519838
13	0xbf06fe11	-0.52731425
14	0xbe472e2e	-0.1945121
15	0x3ed58b46	0.4170782
16	0xbee9c625	-0.45658985
17	0xbd8f4b15	-0.06996743
18	0xbeeed8c5	-0.46649757
19	0xbdf4b829	-0.11949188
20	0xbf3fd9a4	-0.7494147
21	0xbceec293	-0.029145515
22	0xbe106052	-0.14099243
23	0xbe7d3373	-0.24726658
24	0xbe7c997c	-0.24667925
25	0xbe9ee40c	-0.3103336
26	0xbd277543	-0.040883314
27	0xbeb18a76	-0.3467595
28	0xbf02f7a4	-0.5115912
29	0x3dcc845b	0.09986182
30	0xbdf6b40b	-0.12046059
31	0xbf054756	-0.52061975
32	0xbf344170	-0.7041235
33	0xbd230957	-0.03980383
34	0xbee88c5b	-0.45419583
35	0xbf045c92	-0.5170375
36	0xbedce45f	-0.43142983
37	0xbcc6ea3a	-0.02428161
38	0x3ec43ba5	0.38326755
39	0x3e1826aa	0.14858499
40	0xbeee49d1	-0.46540692
41	0xbd837d2e	-0.064203605
42	0xbe7e4a80	-0.24833107
43	0xbe494be1	-0.19657852
44	0x3eac7269	0.33681038
45	0xbdd515aa	-0.10404523
46	0x3cd2aad2	0.02571622
47	0xbdd7a446	-0.105293795
48	0x3d58be04	0.052915588
49	0x3ddda823	0.10823085
50	0xbf069530	-0.5257139
51	0xbe9bc8f7	-0.30426762
52	0xbf022d4a	-0.50850356
53	0xbe0995cb	-0.13436048
54	0xbf1cc2e3	-0.61234874
55	0xbe50d017	-0.2039188
56	0xbec149bb	-0.37751564
57	0xbf1a7d5b	-0.6034753
58	0xbe0211ef	-0.12702154
59	0xbf4ceb46	-0.800465
60	0xbf283165	-0.6570037
61	0x3d0a0103	0.03369237
62	0xbd390b7e	-0.045176975
63	0x3d88bd18	0.06676692
64	0xbef404d8	-0.47659945
65	0xbf07eadd	-0.5309275
66	0xbead714a	-0.33875495
67	0x3e480901	0.19534685
68	0xbee3415a	-0.44385797
69	0xbb8d3efe	-0.004310488
70	0xbd57c1ad	-0.052674938
71	0x3cc6ab58	0.024251625
72	0xbf073d62	-0.5282804
73	0xbe00a1f2	-0.12561777
74	0xbf0029df	-0.5006389
75	0x3e5e6674	0.2171877
76	0xbe565c81	-0.20933725
77	0xbdbb5f46	-0.09149031
78	0xbe6e0b10	-0.23246408
79	0xbd6707ef	-0.05640405
80	0xbdf1773f	-0.117903225
81	0xbe37a6cf	-0.17934726
82	0xbe973cb2	-0.29538494
83	0xbefe46b5	-0.4966332
84	0xbdb67673	-0.08909311
85	0x3d1cc6e7	0.038275626
86	0xbec4c539	-0.3843172
87	0xbd07b331	-0.033129875
88	0xbe988137	-0.29786083
89	0x3e8db73b	0.27678856
90	0xbee8cffd	-0.45471182
91	0xbe4d9fa0	-0.20080423
92	0xbe25e131	-0.16199185
93	0xbe405ba0	-0.18784952
94	0xbde17c49	-0.11010034
95	0xbe8d94a2	-0.2765246
96	0xbf1e557a	-0.61849177
97	0xbf1b95dc	-0.6077554
98	0xbf1722ed	-0.5903767
99	0xbe887952	-0.2665506
100	0x3e5856ab	0.21126811
101	0xbf0b9525	-0.5452445
102	0xbbdcbc01	-0.006736279
103	0xbf073b62	-0.52824986
104	0xbdc0b099	-0.09408683
105	0xbe43488f	-0.19070648
106	0xbf34ad04	-0.705765
107	0xbdc25e2c	-0.09490618
108	0xbe8b24fd	-0.27176657
109	0xbd53d67e	-0.051718228
110	0x3ecf638c	0.40505636
111	0xbe291ce9	-0.16514935
112	0x3d1455b2	0.036214538
113	0x3e382c62	0.1798568
114	0xbd78dbb9	-0.06075642
115	0xbeb785be	-0.35844225
116	0x3cd70981	0.026249649
117	0xbeee1e56	-0.4650752
118	0xbe55720e	-0.2084429
119	0xbebd15b6	-0.36930627
120	0xbedc525a	-0.4303158
121	0xbf2d184e	-0.6761521
122	0xbef7ccd6	-0.48398465
123	0xbe8b3d6c	-0.271953
124	0x3e847132	0.2586761
125	0xbcf23a33	-0.029568767
126	0xbf45d173	-0.7727272
127	0x3e425148	0.18976319

linear_2.weight f4 [128, 128]
0	0xbc9a19a3	-0.018811053
1	0xbd58f007	-0.052963283
2	0xbd2d3eda	-0.042296268
3	0xbd192c56	-0.037395798
4	0xbd5ad5f8	-0.053426713
5	0x3d1f31ec	0.03886597
6	0xbcfc120b	-0.030770322
7	0x3da7a3b4	0.08185521
8	0xbc793b83	-0.015211943
9	0x3db41d58	0.087946594
10	0x3d40dc65	0.047085185
11	0x3cbb819c	0.022888951
12	0xbd7a9b87	-0.06118348
13	0x3d5008ad	0.050789524
14	0xbd43f537	-0.047841277
15	0xbe1fa39a	-0.15589753
16	0xbdfa3190	-0.122164845
17	0xbd88d2dd	-0.06680844
18	0xbc310c74	-0.010806192
19	0xbd0de26f	-0.034639772
20	0xbcba33fd	-0.022729868
21	0x3cf15e45	0.029463897
22	0x3ce9c5d0	0.028536707
23	0xbce46db3	-0.02788434
24	0xbc515696	-0.012776991
25	0x3cce19f6	0.025158864
26	0x3b892942	0.0041858265
27	0xbd756367	-0.05990925
28	0xbce41ac9	-0.027844803
29	0xbd16c8cf	-0.0368126
30	0xbdcf110c	-0.10110673
31	0xbdd3d4e3	-0.10343339
32	0xbbc05f0e	-0.0058707064
33	0xbd89a750	-0.067213655
34	0xbd2535b3	-0.040334415
35	0xbd5ef8df	-0.05443656
36	0x3d95abba	0.07308145
37	0xbc3aba80	-0.011397004
38	0xbd9fdfd1	-0.078063615
39	0x3d07b339	0.033129904
40	0x3d5900af	0.052979168
41	0xbda0abaf	-0.07845246
42	0xbdcde826	-0.100540444
43	0xbdb2ef52	-0.08737053
44	0xbd9087d1	-0.07057155
45	0xbddad984	-0.10686019
46	0xbd520102	-0.051270492
47	0xbd7cb5cf	-0.061696824
48	0xbd98fa3c	-0.074696034
49	0xbdbda354	-0.09259668
50	0xbd55b24d	-0.052171994
51	0x3d0f5d60	0.03500116
52	0xbdca8c87	-0.09890085
53	0xbcd39813	-0.02582935
54	0xbd1721de	-0.036897533
55	0xbd2de00d	-0.04245
56	0x3d85acfe	0.06527136
57	0x3d15d3f8	0.036579102
58	0x3d5d2228	0.053987652
59	0xbc94e7f3	-0.018177008
60	0x3cc0ec27	0.023550106
61	0x3c8feea1	0.017569842
62	0xbdcc88eb	-0.099870525
63	0x3d252ed4	0.040327862
64	0xbb50c58c	-0.0031856028
65	0xbd24c391	-0.04022557
66	0xbc1bfa35	-0.009520103
67	0xbd88a7e5	-0.06672648
68	0xbde264b9	-0.110543676
69	0x3b91ad43	0.0044457032
70	0xbd20da8a	-0.039270915
71	0xbd8ce3c8	-0.06879383
72	0xbd4f8c4c	-0.050670907
73	0xbdfaccf7	-0.12246125
74	0x3cfd042c	0.030885778
75	0x3cc2a853	0.023761904
76	0xbd63ef15	-0.05564793
77	0xbda0d105	-0.07852367
78	0xbaeaa29e	-0.0017901247
79	0xbc9d58c5	-0.019207368
80	0x3aa9d4f0	0.0012957137
81	0x3cc862d5	0.02446119
82	0xbd21c1d1	-0.03949148
83	0xbdcbe21f	-0.099552386
84	0xbd63c339	-0.0556061
85	0xbc094b0d	-0.00837971
86	0xbda0f5cc	-0.07859382
87	0x3d093583	0.0334983
88	0xbd956c19	-0.072960086
89	0xbd419f12	-0.047270842
90	0x3c3330a9	0.010936894
91	0xbd0c6dae	-0.034284286
92	0x3b7fb312	0.0039016646
93	0x3d25d6eb	0.040488165
94	0xbdc27ac2	-0.094960704
95	0xbdadb7d0	-0.08482325
96	0xbd909277	-0.07059186
97	0xbcebfe52	-0.028807793
98	0xbdcd19f7	-0.10014718
99	0xbe094ee5	-0.13409002
100	0xbd96dec4	-0.07366708
101	0xbc1c8439	-0.009553009
102	0xbdaa1687	-0.08305078
103	0x3d3550fc	0.044266686
104	0xbb981601	-0.004641295
105	0x3d117b2b	0.035517853
106	0xbcd9cca9	-0.026586847
107	0xbdd30e6b	-0.103054844
108	0xbc221d04	-0.009894613
109	0x3d79c029	0.060974274
110	0xbdb8103d	-0.08987472
111	0xbda7655a	-0.08173628
112	0x3ccf4063	0.025299257
113	0x3c87bff3	0.01657102
114	0xbe30e79f	-0.17275856
115	0xbc4e96e3	-0.012609216
116	0xbce2bf3f	-0.027679084
117	0xbddd9483	-0.10819342
118	0xbd135365	-0.035968203
119	0x3d249530	0.04018134
120	0xbdb2e284	-0.08734611
121	0x3c059e29	0.008155384
122	0xbdf7b6ad	-0.120953895
123	0x3dd932b4	0.10605374
124	0x3cb3ffd7	0.02197258
125	0x3cbe125b	0.023202112
126	0x3b6b8724	0.0035938704
127	0xbb8e1885	-0.004336419
128	0xbe09eec9	-0.13469996
129	0xbd1521eb	-0.0364093
130	0xbdd0b925	-0.101915635
131	0xbe04f7da	-0.12985173
132	0xbde86ebd	-0.11349247
133	0x3b35fbc5	0.0027768475
134	0x3ca2f194	0.019890584
135	0xbe1c75b4	-0.15279275
136	0xbcb115c5	-0.021616826
137	0x3c537327	0.012905872
138	0x3d30efa1	0.043197278
139	0x3cb65014	0.022254981
140	0x3d54358b	0.051808875
141	0xbd51d01b	-0.051223855
142	0x3d1e8fc3	0.03871132
143	0x3cf6f251	0.030144842
144	0xbe0d11bc	-0.13776296
145	0xbdb628ac	-0.08894476
146	0x3cb564ac	0.02214273
147	0x3cc0b5f2	0.023524258
148	0xbd252a8d	-0.040323783
149	0x3b2d44ca	0.0026438707
150	0xbd452c16	-0.048137747
151	0xbd33339d	-0.043750394
152	0xbda333b9	-0.0796885
153	0x3c7cf63d	0.015439567
154	0x3ac291df	0.0014844498
155	0xbe104b0b	-0.14091127
156	0x3cb5e7f6	0.022205334
157	0x3b5a4490	0.0033305027
158	0xbcf62270	-0.030045718
159	0x3d90b6de	0.07066129
160	0x3bd2f76a	0.0064381855
161	0xbd262d09	-0.040570293
162	0x3cbfb9dd	0.023404056
163	0xbd17500f	-0.036941584
164	0xbd14029b	-0.036135297
165	0xbd5af8f9	-0.053460095
166	0xbdbde28b	-0.09271725
167	0xbcded5bb	-0.027201524
168	0xbd9550ca	-0.072908
169	0xbc83671f	-0.016040383
170	0xbca81192	-0.02051619
171	0xbcf0678b	-0.029346248
172	0xbe13fdc0	-0.14452267
173	0xbe15e69b	-0.1463875
174	0x3c44eaf6	0.01201891
175	0xbd04e866	-0.032448195
176	0xbe130ad2	-0.14359596
177	0xbb8f2c15	-0.0043692687
178	0xbdaf98a4	-0.08574036
179	0xbd53e63f	-0.05173325
180	0x3d2c5db8	0.042081565
181	0x3cdf57c8	0.027263537
182	0xbd8df047	-0.06930595
183	0x3cab66e6	0.02092309
184	0x3ce4bf52	0.02792326
185	0xbc890967	-0.016728116
186	0x3d04c03a	0.032409884
187	0x3c13c721	0.009019644
188	0xbd3d222a	-0.04617516
189	0xbd9a9ed7	-0.075498275
190	0xbd11cfea	-0.035598673
191	0xbca964ab	-0.020677885
192	0xbd18e3a1	-0.03732646
193	0xbdcdddf9	-0.100521035
194	0xbccc8f42	-0.024970654
195	0xbca9e536	-0.02073918
196	0xbdaf661c	-0.08564398
197	0xbda9acb8	-0.082848966
198	0xbd63e543	-0.055638563
199	0xbd89ccc7	-0.06728511
200	0xbcaf180e	-0.021373775
201	0xbd1c555d	-0.038167346
202	0x3cb2e305	0.021836767
203	0xbd3d5634	-0.046224788
204	0xbd8cee0c	-0.06881341
205	0x3cdbef40	0.026847482
206	0xbd50c5ec	-0.050970003
207	0xbdeace9c	-0.11465189
208	0xbd864f18	-0.06558055
209	0xbd5f9775	-0.0545878
210	0xbde58602	-0.112072006
211	0xbd796e53	-0.06089623
212	0xbd8c85f7	-0.06861489
213	0xbe13e43a	-0.1444253
214	0xbd9c8968	-0.07643396
215	0xbdad0c25	-0.08449582
216	0x3cf3fe26	0.029784273
217	0x3d2b3809	0.041801486
218	0xbc6c667c	-0.014428731
219	0x3c3f118d	0.011661899
220	0xbd410279	-0.0471215
221	0xbdfae044	-0.122498065
222	0xbd5858ea	-0.05281917
223	0x3d284e2d	0.04109018
224	0x3d9eb376	0.07749073
225	0xbcc0bbba	-0.023527015
226	0x39d04042	0.00039720727
227	0x3c4ede60	0.0126262605
228	0x3c3ec47a	0.011643523
229	0xbe033c7a	-0.12816039
230	0x3ce71fc9	0.028213399
231	0xbd2cef7d	-0.04222058
232	0x3ccd157f	0.025034664
233	0xbca2eab3	-0.019887304
234	0xbd93fad4	-0.07225576
235	0x3c275239	0.0102124745
236	0xbd65fb1a	-0.056147672
237	0xbe1dc4b7	-0.15407072
238	0xbdaf1d07	-0.085504584
239	0xbdbd05f1	-0.09229649
240	0xbd04f343	-0.032458555
241	0xbd9417e8	-0.07231122
242	0x3cdc0e12	0.026862178
243	0xbd1a2e60	-0.037641883
244	0xbd5d1bea	-0.0539817
245	0x3c8537fd	0.016262049
246	0xbdf1eb61	-0.11812473
247	0xbdc303ce	-0.0952221
248	0xbcb66f74	-0.022269942
249	0xbd683370	-0.05668968
250	0xbdbd7280	-0.09250355
251	0xbd77fa24	-0.060541287
252	0xbda2b467	-0.07944565
253	0xbca5ba6d	-0.020230496
254	0xbc91a7a2	-0.017780129
255	0xbab92f99	-0.0014128565

linear_2.bias f4 [128]
0	0xbe0110e9	-0.12604107
1	0xbcc5b8f4	-0.024136044
2	0x3e088192	0.13330677
3	0xbd554ee2	-0.05207718
4	0xbd411719	-0.04714117
5	0xbe5b6523	-0.214253
6	0xbd8b874c	-0.06812915
7	0xbd6f84ac	-0.058476135
8	0xbe6869bd	-0.22696586
9	0xbd9885bc	-0.07447383
10	0xbe0af7e5	-0.13571127
11	0xbe55be26	-0.20873317
12	0xbd02faa5	-0.031977315
13	0xbbd7f70c	-0.0065907296
14	0xbe71a59c	-0.23598331
15	0xbdfd45ef	-0.123668544
16	0xbeb20ec2	-0.34776884
17	0xbd03a4d2	-0.032139607
18	0xbe7fa622	-0.24965718
19	0xbdaaeb7f	-0.083456986
20	0xbe8c4f3e	-0.27404207
21	0xbdf24157	-0.11828869
22	0x3d18a059	0.037262294
23	0x3d58bec1	0.052916292
24	0xbd63565f	-0.05550229
25	0x3dc2ae6e	0.09505926
26	0xbd173953	-0.036919903
27	0xbe5673be	-0.2094259
28	0xbcdacd60	-0.026709259
29	0x3c9236f1	0.017848464
30	0xbe06edd8	-0.13176668
31	0xbd17c8d3	-0.037056755
32	0xbe0076b2	-0.12545279
33	0xbbea3a59	-0.007148069
34	0xbc8c26cf	-0.01710835
35	0xbdd95002	-0.106109634
36	0x3f0d0df7	0.55099434
37	0x3e94f6ba	0.29094487
38	0x3e2f6fa1	0.17132427
39	0xbde447b2	-0.11146487
40	0xbdec728c	-0.115452856
41	0xbeb160e1	-0.34644225
42	0xbde2b2e4	-0.11069277
43	0x3f1218a6	0.5706886
44	0xbc4bbc88	-0.012435086
45	0x3c457575	0.01205193
46	0x3c70f106	0.014705902
47	0xbd959f66	-0.073057935
48	0xbe22b878	-0.15890682
49	0x3de3eb87	0.11128908
50	0x3e87b2ad	0.26503506
51	0x3e436d39	0.19084634
52	0xbc1170d3	-0.008876997
53	0x3b1a8fc9	0.0023584238
54	0xbd87bc8c	-0.06627759
55	0xbc31c23c	-0.010849532
56	0xbd8e7f34	-0.06957856
57	0xbd9f47d3	-0.07777371
58	0x3c66c4f0	0.0140850395
59	0xbe6ee070	-0.23327804
60	0xbe2fde53	-0.17174654
61	0xbe385e46	-0.18004712
62	0xbd9c6f55	-0.076384224
63	0xbca22b35	-0.019795993
64	0xbda1be5d	-0.07897637
65	0xbded6e21	-0.11593271
66	0xbe10bbf7	-0.14134203
67	0x3dd6624f	0.104679696
68	0xbecdfc87	-0.40231726
69	0xbda7f1fe	-0.08200453
70	0xbe006e7e	-0.1254215
71	0xbd483f7d	-0.048888672
72	0xbda00b98	-0.07814711
73	0xbd24cb68	-0.040233046
74	0xbe35d489	-0.17756857
75	0xbdeeff43	-0.11669781
76	0xbe735183	-0.23761563
77	0xbdd0fc36	-0.102043554
78	0xbe1f3783	-0.1554852
79	0xbc346e5c	-0.01101264
80	0x3e31aef0	0.1735189
81	0x3d33b257	0.04387125
82	0xbe769ae2	-0.2408252
83	0x3e8109ac	0.25202692
84	0xb9c443df	-0.000374346
85	0xbc5c98b8	-0.013464145
86	0xbcf9e7f1	-0.030506106
87	0x3c6bf1bf	0.0144008985
88	0xbdf93f98	-0.12170333
89	0xbdbd713a	-0.09250112
90	0xbd534452	-0.051578827
91	0xbc94d42c	-0.018167578
92	0xbc9959c9	-0.01871957
93	0xbdbc1253	-0.091831826
94	0xbe70711f	-0.23480652
95	0xbda5bd78	-0.08092779
96	0x3afa275e	0.0019085219
97	0xbd5da1b2	-0.054109283
98	0xbc29af8c	-0.010356795
99	0xbd119bb1	-0.03554887
100	0xbce9d511	-0.02854398
101	0xbd1a3e63	-0.037657153
102	0xbd60a58c	-0.054845378
103	0xbe7682e7	-0.24073373
104	0xbe0a165b	-0.1348509
105	0xbde20457	-0.11035984
106	0xbd762afe	-0.060099594
107	0x3e6c8417	0.23097263
108	0xbda4e9c6	-0.08052401
109	0x3cbc0163	0.02294988
110	0xbdb13201	-0.086521156
111	0x3c87ded3	0.016585743
112	0x3c571eb1	0.013129876
113	0xbdb1be8a	-0.086789206
114	0xbe5ea404	-0.21742254
115	0x3cc6c166	0.024262141
116	0xbd134f26	-0.035964154
117	0xbc27d456	-0.010243496
118	0xbd6e87e3	-0.05823506
119	0xbcf7f92e	-0.030270185
120	0xbdb8c7a8	-0.090224564
121	0xbd6073cb	-0.05479793
122	0xbe561ad7	-0.20908676
123	0x3d312add	0.04325377
124	0xbd6f090a	-0.05835823
125	0xbb88de59	-0.0041768965
126	0xbdefb185	-0.11703781
127	0x3e8632e4	0.262107

linear_3.weight f4 [2, 128]
0	0x3d567918	0.052361578
1	0x38f35db5	0.00011604597
2	0x3e4fe3a4	0.20301682
3	0x3cce6a78	0.025197253
4	0x38f73475	0.00011787649
5	0xbd730b82	-0.059337147
6	0x3d48db55	0.049037296
7	0xbc8c3e35	-0.017119506
8	0x3b615a3b	0.0034386057
9	0x3ce606b2	0.028079364
10	0x3d9ea679	0.07746596
11	0xbc7fcaff	-0.015612363
12	0xbd913d5e	-0.07091783
13	0x3dc5a144	0.096498996
14	0xbd81985c	-0.06327888
15	0x3d231ca9	0.039822254
16	0x3e58dce2	0.2117801
17	0x3d38c7e7	0.045112517
18	0x3df9aefd	0.121915795
19	0x3b3cfc3e	0.0028836871
20	0x3d3aa655	0.045568783
21	0xbd12c14a	-0.035828866
22	0x3d275115	0.04084881
23	0x3c91b17d	0.017784828
24	0x3df7c8a8	0.12098819
25	0xbcdbb456	-0.02681939
26	0xbc461313	-0.012089509
27	0xbc8915d9	-0.01673405
28	0x3c085baa	0.008322636
29	0xbce71424	-0.028207846
30	0x3d1f2032	0.038849063
31	0xbca69d28	-0.02033861
32	0x3d42a8b2	0.04752416
33	0x3df7c828	0.12098724
34	0x3d9ad633	0.075603865
35	0x3d2de1a8	0.04245153
36	0xbe7ad7c8	-0.24496377
37	0xbecfb7d8	-0.4056995
38	0x3e4310e1	0.19049408
39	0xbc580264	-0.013184164
40	0xbbaa6a94	-0.0052006934
41	0x3dc8f5b5	0.0981249
42	0x3d9b0d50	0.075708985
43	0xbcae84c2	-0.021303538
44	0xbdccfcfd	-0.10009191
45	0xbd870af8	-0.06593889
46	0xbb9caa93	-0.004781076
47	0xbda00d4c	-0.07815036
48	0xbd328b19	-0.043589685
49	0xbd699755	-0.057029087
50	0x3e5bf6ea	0.21480909
51	0x3eb2ad88	0.3489802
52	0xbb13891c	-0.0022512143
53	0x3e010310	0.12598825
54	0x3d5fbc02	0.054622658
55	0x3da4d7fa	0.08049007
56	0x3da60af6	0.081075594
57	0xbe37d81b	-0.17953531
58	0x3b876b8c	0.0041326936
59	0xbe436c93	-0.19084387
60	0x3dda366b	0.10654911
61	0xbcc5057b	-0.024050465
62	0x3d92f288	0.071751654
63	0xbccbcafd	-0.024877066
64	0x3ddeba3f	0.108753674
65	0x3cb7edfc	0.022452347
66	0x3e08bd9b	0.13353579
67	0x3d0fb3a0	0.035083413
68	0x3e6d2bd7	0.23161255
69	0xbe46b541	-0.1940508
70	0x3d11adfd	0.03556632
71	0x3dc619f4	0.09672919
72	0xbd8f66e7	-0.07002049
73	0xbc51ab67	-0.012797213
74	0xbcd51afb	-0.026013842
75	0xbcf70f49	-0.030158656
76	0xbcf2c50d	-0.029634977
77	0x3c9bb90b	0.019009134
78	0x3d445ef9	0.047942135
79	0x3d77856e	0.060429983
80	0x3e858e4c	0.26085126
81	0xbbe7ff30	-0.0070799813
82	0x3e2f8e5e	0.17144153
83	0xbec519ec	-0.3849634
84	0xbd89b3d6	-0.06723754
85	0xbc925745	-0.017863879
86	0x3dff6f27	0.124723725
87	0x3e42ccca	0.19023433
88	0x3da55b41	0.08074046
89	0x3de008c7	0.10939174
90	0x3db96640	0.09052706
91	0x3cb4f1bc	0.022087924
92	0x3d97bfa3	0.07409599
93	0x3d34ac7a	0.0441098
94	0xbd25617e	-0.04037618
95	0x3e3c2829	0.18374695
96	0x3c468326	0.012116229
97	0x3d1c2d6d	0.03812926
98	0x3d36b139	0.044602606
99	0x3b4b7ec5	0.0031050902
100	0xbd1e2b05	-0.038615245
101	0xbc64d678	-0.013967149
102	0xbcbe91b1	-0.02326283
103	0x3d5ffce8	0.05468455
104	0xbd3277c3	-0.043571245
105	0x3df4b3c0	0.11948347
106	0xbe571405	-0.2100373
107	0x3eaf8b93	0.34286174
108	0x3db450d3	0.088044785
109	0x3da33362	0.07968785
110	0xbcba8797	-0.022769732
111	0x3da1d75c	0.07902405
112	0x3d25aad0	0.040446103
113	0x3cb695bd	0.022288198
114	0xbd1adbac	-0.03780715
115	0x3d2fa4d8	0.042881817
116	0x3a691372	0.0008891142
117	0x3c94e3c1	0.018175008
118	0x3d7c47cc	0.06159191
119	0xbdb1fde6	-0.086910054
120	0xbc79a943	-0.015238109
121	0xbd8c3421	-0.0684588
122	0xbd5e020b	-0.054201167
123	0xbdd2c02f	-0.10290562
124	0xbd047a7b	-0.03234337
125	0x3d0280b3	0.03186102
126	0xbe2f29b4	-0.17105752
127	0x3d66ed5c	0.056378707
128	0x3c8e3071	0.017357083
129	0xbcc7ebcb	-0.024404427
130	0x3c31e90e	0.010858787
131	0xbd76544a	-0.060138978
132	0xbd743aa0	-0.05962622
133	0x3e4f7ff4	0.20263654
134	0x3c427579	0.011868828
135	0x3a0879d1	0.00052061403
136	0xbd24c05d	-0.040222514
137	0xbd756d3c	-0.059918627
138	0xbd833cb1	-0.0640806
139	0x3d0a66a0	0.033789277
140	0x3e08e47e	0.13368413
141	0xbcc2386c	-0.023708545
142	0x3d38d2b1	0.045122806
143	0x3e100def	0.14067815
144	0x3e252cea	0.16130415
145	0xbd3192a4	-0.043352738
146	0x3e1e6f24	0.15472084
147	0xbc246d0c	-0.010035764
148	0x3e30b3bd	0.17256065
149	0xbdf18674	-0.11793223
150	0xbdeda46d	-0.11603627
151	0xbcb5e653	-0.022204554
152	0x3cce1160	0.02515477
153	0x3dfcbe8e	0.12341033
154	0xbd5cdcf6	-0.053921662
155	0x3c9389b3	0.018009996
156	0xbd8069e3	-0.06270196
157	0xbccfdccb	-0.025373837
158	0xbcf115c0	-0.029429317
159	0xbc4a373e	-0.012342272
160	0x3b05993e	0.002038553
161	0xbd7a6dbd	-0.06113981
162	0x3c7e7a01	0.015532018
163	0x3c8d2dd7	0.017233772
164	0xbd8f160d	-0.06986628
165	0xbe0c4620	-0.13698626
166	0x3e7ee22b	0.24890964
167	0xbdec4214	-0.11536041
168	0xbd4045d4	-0.046941593
169	0x3d70a898	0.058754534
170	0xbd534557	-0.0515798
171	0xbe59df06	-0.21276483
172	0x3d8a44a5	0.06751374
173	0xbd980b8f	-0.074240796
174	0xbdb8ecd6	-0.09029548
175	0xbdbe31fa	-0.09286876
176	0xbd6818d8	-0.056664318
177	0xbd80fd0d	-0.062982656
178	0x3d1bc41d	0.038028825
179	0xbbc2665d	-0.005932613
180	0x3bb34ba9	0.005471666
181	0xbe29c513	-0.16579084
182	0xbd82c604	-0.06385425
183	0x3cd64a44	0.02615846
184	0xbca517e5	-0.020152995
185	0x3d6e4045	0.05816676
186	0xbd1e8069	-0.03869668
187	0xbd3f1d2e	-0.046658687
188	0xbe103d17	-0.14085804
189	0xbcbce088	-0.023056284
190	0xbd5e5af6	-0.054285966
191	0x3c408776	0.011751046
192	0x3d06118d	0.03273158
193	0x3c333663	0.01093826
194	0xbd9cdf8e	-0.07659827
195	0xbdddaa9c	-0.10823557
196	0xbeab0765	-0.3340408
197	0x3e6c2e74	0.23064595
198	0x3c8ac2cd	0.016938591
199	0xbd6dec68	-0.058086783
200	0xbc840859	-0.016117262
201	0xbb637fbf	-0.0034713594
202	0x3d938145	0.072023906
203	0x3c82b2e3	0.01595444
204	0xbc2f8343	-0.010712448
205	0x3d43ce99	0.04780445
206	0x3a820896	0.0009920772
207	0xbd770f90	-0.060317576
208	0xbe344141	-0.17603017
209	0xbd9fccc2	-0.07802726
210	0x3e25902a	0.16168275
211	0x3e0ca43a	0.13734522
212	0x3d665eb7	0.05624267
213	0xbd66e503	-0.056370746
214	0x3d861ee3	0.0654886
215	0xbdd8207d	-0.10553072
216	0xbdc71ebe	-0.097226605
217	0xbc80ec8f	-0.0157378
218	0x3d97d429	0.07413513
219	0xbc0c24ae	-0.008553667
220	0xbd61a535	-0.055089194
221	0x3c53268d	0.012887609
222	0x3cb2850a	0.021791954
223	0x3a0ffa82	0.00054923457
224	0xbe4a6a39	-0.19767083
225	0xbdf6a969	-0.12044031
226	0xbd1424a2	-0.03616775
227	0xbd982ce7	-0.074304394
228	0xbaffcb7e	-0.0019515601
229	0xbc984d04	-0.018591411
230	0x3c4bf549	0.012448617
231	0x3cce036d	0.025148118
232	0x3d9c0ddc	0.07619831
233	0x3da39a2e	0.07988392
234	0xbd723b81	-0.05913878
235	0xbe7ebf6f	-0.24877714
236	0x3e2dc4bb	0.16969578
237	0xbd5ef839	-0.054435942
238	0x3d0df25a	0.034654953
239	0x3c3d9925	0.011572157
240	0xbc5d31ab	-0.013500611
241	0xbd29fa11	-0.041498248
242	0xbe29b9e1	-0.16574813
243	0xbd91e999	-0.07124633
244	0xbd93bbe7	-0.07213574
245	0xbd2cd86b	-0.04219858
246	0xbc71a0a3	-0.014747771
247	0xbca41ee8	-0.020034268
248	0xbd57418a	-0.052552737
249	0x3e299b75	0.16563208
250	0x3d3393e4	0.04384221
251	0x3e62556e	0.22102901
252	0x3cfef7b5	0.031123975
253	0xbcc82b7b	-0.024434796
254	0xbe10e413	-0.14149503
255	0x3e6ced0c	0.23137301

linear_3.bias f4 [2]
0	0x3defe710	0.117139935
1	0x3cc4df52	0.024032269
